src/e2.pth (torch, 267195 bytes, 13 tensors)

weight f4 [12, 12, 2]
0	0xbe4d4e03	-0.2004929
1	0x3e3fad18	0.18718374
2	0x3d1f9ce8	0.038967997
3	0x3dbf7027	0.09347563
4	0x3d41c67a	0.047308423
5	0xbc96d676	-0.01841281
6	0x3ddeda7c	0.10881516
7	0x3d482cf8	0.04887101
8	0x3d5d6b6a	0.054057516
9	0xbe28841d	-0.16456647
10	0xbde475c1	-0.11155272
11	0x3eb2c355	0.34914652
12	0x3e00e599	0.12587585
13	0xbb9e6b96	-0.0048346026
14	0x3cd4ff4d	0.026000643
15	0x3d4aed42	0.049542673
16	0xbd9fc4c7	-0.07801204
17	0x3e78c022	0.24292043
18	0xbc665590	-0.014058486
19	0x3d6e292c	0.058144733
20	0x3d1196b0	0.035544097
21	0xbd1b32cb	-0.037890237
22	0xbe388f76	-0.18023476
23	0x3d4edc0a	0.050502814
24	0xbd0f6b38	-0.03501436
25	0xba3bc200	-0.0007162392
26	0x3d9dc264	0.07703093
27	0xbdcd08d1	-0.10011447
28	0x3dcd5e10	0.100277066
29	0xbe4dc502	-0.20094684
30	0x3d8f61b0	0.07001054
31	0x3d021e0c	0.031766936
32	0xbdfd9b6c	-0.1238316
33	0x3e2564d8	0.1615175
34	0x3e01739e	0.1264176
35	0x3df0e2e0	0.11762023
36	0x3e159c14	0.1461032
37	0x3d784e30	0.06062144
38	0xbe29f1ce	-0.16596147
39	0xbe31f132	-0.17377165
40	0x3de23d04	0.11046794
41	0xbe03c5b1	-0.12868382
42	0x3d26530c	0.040606543
43	0x3c1f8b80	0.009737849
44	0xbe006aca	-0.12540737
45	0xbd82e8dc	-0.06392071
46	0xbda14ac2	-0.07875587
47	0xbd690374	-0.05688806
48	0x3cffec59	0.031240629
49	0xbe32f4d1	-0.17476203
50	0x3e4d12db	0.20026724
51	0xbd03a4a8	-0.03213945
52	0xbe27572d	-0.16341849
53	0x3e23cfe1	0.15997268
54	0xbe1c0ea0	-0.15239954
55	0x3b341f0b	0.0027484323
56	0xbe740601	-0.23830415
57	0x3e119727	0.14217816
58	0x3ecb2c44	0.3968221
59	0x3f070736	0.5274538
60	0x3dbbe4ac	0.09174475
61	0xbd05cc48	-0.03266552
62	0x3d04f110	0.032456458
63	0xbe1e30cd	-0.15448304
64	0xbdff3135	-0.12460557
65	0xbd13252c	-0.03592412
66	0xbcc4d0cb	-0.024025341
67	0xbcecc511	-0.028902562
68	0x3cb15d16	0.021650832
69	0x3e2ee7ee	0.17080662
70	0xbe60410b	-0.21899812
71	0x3def99f3	0.11699285
72	0xbe4c3207	-0.19940959
73	0xbe0bfc21	-0.13670398
74	0x3b30cbc0	0.0026976913
75	0xbe21852e	-0.1577346
76	0xbded0232	-0.11572684
77	0xbe5db8a4	-0.21652466
78	0xbe4a7be5	-0.19773825
79	0xbea18f97	-0.31554863
80	0x3b8ee000	0.004360199
81	0xbe0db3ea	-0.13838163
82	0xbc7bd160	-0.015369743
83	0xbe55ca52	-0.2087796
84	0x3d01f138	0.031724185
85	0x3e612e8f	0.21990417
86	0x3dc34658	0.095349014
87	0x3e531190	0.20612168
88	0x39d60600	0.0004082173
89	0xbe75298e	-0.23941633
90	0x3d927438	0.07151073
91	0x3d7a2f31	0.06108016
92	0xbd6889d4	-0.05677207
93	0x3d8c1626	0.06840162
94	0x3d808638	0.062756
95	0x3e4077e9	0.18795742
96	0xbe4f306f	-0.2023332
97	0x3ba5ce85	0.0050600194
98	0x3dde3671	0.108502276
99	0x3dbdf866	0.09275894
100	0xbe6a1b84	-0.22862059
101	0x3e5840b6	0.21118435
102	0xbeb7a6c9	-0.35869434
103	0xbd88e624	-0.06684521
104	0x3cbc76a3	0.02300579
105	0x3d85d87c	0.06535432
106	0xbf2d0562	-0.6758634
107	0xbe9959d9	-0.2995136
108	0x3e41321c	0.18866771
109	0x3df2ce7f	0.11855792
110	0x3ccc2a8c	0.024922632
111	0x3d6a448d	0.05719428
112	0xbc1fb685	-0.009748106
113	0x3e5a1681	0.21297647
114	0xbddbd7c5	-0.10734514
115	0x3c1c897d	0.009554264
116	0x3e1c28a8	0.15249884
117	0x3e086372	0.13319185
118	0xbda3a077	-0.079895906
119	0x3d0fe6b1	0.035132114
120	0x3c507910	0.012724176
121	0x3dfdcbef	0.12392413
122	0x3e036bf8	0.12834156
123	0x3db5c687	0.08875757
124	0xbe5012b8	-0.2031964
125	0x3d7caf66	0.06169071
126	0xbca35558	-0.019938156
127	0xbe26a82e	-0.16275093
128	0x3dd363f8	0.10321802
129	0x3ea01170	0.31263304
130	0xbcb20430	-0.021730512
131	0x3dbfec07	0.093711905
132	0xbc568700	-0.01309371
133	0xbe0da8d0	-0.13833928
134	0xbe311682	-0.17293742
135	0x3d23d60c	0.039999053
136	0x3e4aeb68	0.19816363
137	0x3e427bcd	0.18992539
138	0x3dbe1564	0.09281424
139	0xbe9a201f	-0.3010263
140	0xbda97742	-0.082747
141	0xbd94e23c	-0.07269713
142	0x3e46ad08	0.19401944
143	0x3de308aa	0.11085637
144	0xbd5f14ac	-0.054463074
145	0x3a144200	0.0005655587
146	0xbe3984d7	-0.1811708
147	0xbe221fbc	-0.15832418
148	0xbe5beca8	-0.21476996
149	0xbe16556a	-0.1468102
150	0x3e74befc	0.2390098
151	0x3d426758	0.047461838
152	0xbe0a546c	-0.13508767
153	0xbdcd60d5	-0.10028235
154	0xbe7423fa	-0.23841849
155	0xbd208b2c	-0.039195225
156	0x3d1be847	0.038063314
157	0x3dee1798	0.11625594
158	0x3dbe048c	0.09278211
159	0xbdced112	-0.10098471
160	0x3d64fed9	0.055907104
161	0xbe1cbe22	-0.15306905
162	0xbdd2cc78	-0.102929056
163	0xbd4ed220	-0.05049336
164	0x3d7d35a2	0.061818726
165	0xbd7d15d8	-0.06178841
166	0x3d01ebbe	0.031718962
167	0xbe2cd33c	-0.16877455
168	0x3e2db611	0.16963984
169	0xbe2a4dc4	-0.16631228
170	0xbd1e6cec	-0.038678095
171	0xbe2da43d	-0.16957183
172	0xbdd08200	-0.101810455
173	0xbdd59d50	-0.104303956
174	0x3e0a78c2	0.13522628
175	0xbe4ffe8b	-0.20311944
176	0x3df48588	0.119395316
177	0x3e77f2d5	0.24213727
178	0xbdbdda41	-0.09270144
179	0xbec688a3	-0.3877612
180	0x3e2ce640	0.16884708
181	0x3df37fa6	0.118895814
182	0xbe0d0bcb	-0.1377403
183	0x3c74a075	0.014930834
184	0x3c6e57ca	0.014547298
185	0xbe144f14	-0.14483291
186	0x3de12f67	0.109953694
187	0x3e3689d4	0.17826015
188	0xbdbbd03f	-0.09170579
189	0x3d9257db	0.07145663
190	0x3ca695ba	0.020335067
191	0x3ddd0ead	0.10793815
192	0xbd118390	-0.03552586
193	0x3e0f44ba	0.13991061
194	0xbe154dba	-0.14580432
195	0x3d733d87	0.05938485
196	0xbcf6b158	-0.030113861
197	0x3d91395c	0.070910186
198	0xbdcfaf9e	-0.10140918
199	0x3e9c90e4	0.30579293
200	0x3d930c54	0.07180086
201	0x3dffb0db	0.124849044
202	0x3d874ecc	0.06606826
203	0x3f004a69	0.5011354
204	0x3dbf64b8	0.093453825
205	0x3e00e034	0.12585527
206	0xbde0a19d	-0.10968325
207	0xbc692634	-0.0142303
208	0x3b320100	0.002716124
209	0xbe93b3e2	-0.28848177
210	0xbe416500	-0.18886185
211	0xbdbe1ee3	-0.09283235
212	0xbdce4e0d	-0.10073481
213	0x3e21b130	0.15790248
214	0xbe27cef1	-0.16387536
215	0x3d3f0e8b	0.04664473
216	0x3d581965	0.052758593
217	0x3d2d47b6	0.042304717
218	0xbc29cf72	-0.0103644
219	0xbdbf33fd	-0.09336088
220	0x3e191f64	0.14953381
221	0x3e6576f8	0.22408664
222	0x3e4ef02b	0.20208804
223	0xbe473f65	-0.19457777
224	0x3d4fa8c3	0.050698053
225	0x3ebffb7e	0.3749656
226	0x3e1adaac	0.15122479
227	0xbeaa3ae0	-0.33248043
228	0xbd4c0b11	-0.04981524
229	0xbdcb28ec	-0.099199146
230	0x3d34a718	0.044104666
231	0xbd825b93	-0.06365123
232	0x3e790873	0.2431963
233	0xbe5a579c	-0.21322483
234	0x3e4d1757	0.20028435
235	0x3d6f7089	0.05845693
236	0xbcbee414	-0.023302115
237	0x3d404502	0.04694081
238	0xbe6d1f1b	-0.23156397
239	0xbe2cf9f6	-0.16892228
240	0x3df2a8f0	0.118486285
241	0xbdcb9d14	-0.0994207
242	0x3d9457d2	0.07243313
243	0x3da1aecc	0.07894668
244	0xbe12c37d	-0.14332385
245	0x3e14c1ee	0.14527103
246	0xbda4d816	-0.080490276
247	0x3cc0e4f0	0.023546666
248	0x3ea20104	0.316414
249	0x3e0c40fa	0.13696662
250	0xbe86ee40	-0.26353645
251	0x3e0d2808	0.13784802
252	0x3cfeff04	0.03112746
253	0x3db6a954	0.089190155
254	0xbc1c527e	-0.009541152
255	0xbd3e8300	-0.04651165

bias f4 [12]
0	0x3e0b77ae	0.13619873
1	0x3e04d05a	0.12970105
2	0x3d951825	0.07279996
3	0xbe6f52fc	-0.233715
4	0x3e0f800a	0.14013687
5	0x3da758d2	0.08171238
6	0xbdf485be	-0.11939572
7	0x3e37e6c6	0.17959127
8	0x3e435b94	0.19077903
9	0x3d8c9183	0.06863692
10	0x3daeb3b8	0.085303724
11	0xbc66702f	-0.014064833

weight f4 [96, 12, 2]
0	0xbe574bcf	-0.21025012
1	0x3dbd5f6a	0.092467144
2	0x3ccc7060	0.024955928
3	0x3d455800	0.048179626
4	0xbe582f65	-0.2111183
5	0xbe5462c1	-0.20740797
6	0x3d129db8	0.035794944
7	0x3e20ff9e	0.1572251
8	0xbd4cce88	-0.05000165
9	0xbd1c9a69	-0.038233195
10	0xbe2900dc	-0.16504234
11	0x3be012db	0.0068381852
12	0x3e3b806f	0.18310712
13	0x3e01d060	0.12677145
14	0xbe06ff53	-0.13183336
15	0x3c9d48d8	0.019199774
16	0x3e140c08	0.14457715
17	0x3cc3eb46	0.023915898
18	0xbe4299b2	-0.19003943
19	0x3e7331e6	0.23749503
20	0x3c8c99c6	0.017163169
21	0xbe4f6dec	-0.20256776
22	0x3d334232	0.0437643
23	0x3d2dce7c	0.042433247
24	0xbc6aec4e	-0.014338566
25	0x3cf5ea81	0.030019047
26	0xbe3c0d14	-0.18364364
27	0xbdb2d083	-0.08731177
28	0x3e26359c	0.16231388
29	0x3e872c86	0.26401156
30	0x3e4c8796	0.19973597
31	0x3bc820c0	0.0061074197
32	0xbde6793d	-0.11253593
33	0xbe33e6c4	-0.17568499
34	0xbe836143	-0.25660142
35	0x3d5999e0	0.053125262
36	0x3dafc7e0	0.08583045
37	0xbdefaa18	-0.11702365
38	0xbdf75092	-0.120759144
39	0xbdced932	-0.101000205
40	0x3e23bc7a	0.15989867
41	0xbe16329c	-0.14667743
42	0x3d999229	0.07498581
43	0xbe8ca27e	-0.27467722
44	0xbe30497f	-0.17215537
45	0xbdca745d	-0.09885476
46	0xbe49e7c2	-0.19717315
47	0x3e0a8c0a	0.13529983
48	0x3e07bf37	0.13256536
49	0xbe24cbdf	-0.16093396
50	0xbd9c7f94	-0.07641521
51	0xbd833596	-0.06406705
52	0xbe15826d	-0.14600535
53	0xbd926ad6	-0.071492836
54	0x3e284ff7	0.16436754
55	0x3ddeb709	0.10874755
56	0xbcdc35e2	-0.026881162
57	0x3e439cf8	0.19102848
58	0xbdfe21f6	-0.12408821
59	0xbe52df95	-0.20593102
60	0xbd6663bb	-0.056247454
61	0xbdeac0c9	-0.11462552
62	0x3c9a0319	0.018800305
63	0xbe333f03	-0.17504506
64	0xbdb62a79	-0.0889482
65	0xba2efc25	-0.00066751457
66	0xbdc7d3b4	-0.09757176
67	0xbe76196f	-0.2403314
68	0xbd8ad19b	-0.0677826
69	0x3d6f227a	0.05838249
70	0x3e3e3893	0.18576269
71	0x3e335572	0.17513064
72	0xbcf9c47c	-0.030489199
73	0x3d3c274e	0.04593592
74	0x3dd2ae88	0.102871954
75	0x3d047c54	0.03234513
76	0x3e049c65	0.12950285
77	0x3e8182aa	0.25295
78	0xbe17846b	-0.14796607
79	0xbd854ca2	-0.06508757
80	0xbd7cd521	-0.061726693
81	0xbe01295a	-0.1261343
82	0xbe49267f	-0.19643591
83	0xbe4a2c15	-0.19743378
84	0xbe57597a	-0.21030226
85	0xbe1e75ca	-0.1547462
86	0x3ce02fb0	0.02736649
87	0xbd72db5d	-0.059291232
88	0x3d5646a6	0.05231347
89	0xbe2ffd28	-0.17186415
90	0xbdece176	-0.11566441
91	0x3e3f50cf	0.1868317
92	0x3e12ba17	0.143288
93	0x3d67c1a1	0.056581143
94	0x3e433c5b	0.19065993
95	0x3d61e2c0	0.055147886
96	0xbda991d7	-0.0827977
97	0x3d20e289	0.03927854
98	0x3e19557e	0.14974019
99	0xbd9f1eb2	-0.077695265
100	0xbd40013e	-0.046876185
101	0xbd162046	-0.036651872
102	0x3e64304b	0.22284047
103	0x3d078118	0.033082098
104	0x3c97a103	0.018509394
105	0xbd16cc6a	-0.03681604
106	0x3e0e66aa	0.1390635
107	0x3d80ae0c	0.06283197
108	0xbd5aed33	-0.053448867
109	0xbd3faafe	-0.04679393
110	0xbd7d7f32	-0.06188888
111	0xbc85b1a0	-0.01632005
112	0x3e4d78e9	0.20065655
113	0xbd813ec4	-0.063108
114	0xbdd2cf0c	-0.10293397
115	0xbe7e5d03	-0.24840169
116	0x3e234296	0.1594337
117	0xbe124387	-0.14283572
118	0xbe4cd85e	-0.20004413
119	0x3d5b0f36	0.053481303
120	0xbcd47f42	-0.025939588
121	0xbcec96f2	-0.02888057
122	0xbdfea3c3	-0.12433579
123	0x3e04bd6a	0.1296288
124	0xbcaa79c5	-0.020810017
125	0xbe4412d5	-0.19147809
126	0xbe2de992	-0.16983631
127	0x3ca848e6	0.020542573
128	0xbde29979	-0.11064429
129	0x3e0c1353	0.13679247
130	0x3dc0da94	0.094166905
131	0x3eb74ee6	0.35802382
132	0x3e53a044	0.20666605
133	0x3e25bc9a	0.16185227
134	0x3d851fbc	0.065001935
135	0x3e31f818	0.17379797
136	0xbdc5004e	-0.09619199
137	0xbd96a2aa	-0.073552445
138	0x3dbe1dd2	0.092830315
139	0x3e74f6bb	0.23922245
140	0xbc20a269	-0.009804347
141	0xbd588310	-0.052859366
142	0xbe432a50	-0.1905911
143	0x3d8edb9e	0.069754824
144	0x3cd77078	0.026298746
145	0x3d769024	0.060196057
146	0x3e2e4988	0.17020237
147	0xbd0fc9d8	-0.035104603
148	0x3daae182	0.083437935
149	0xbdf15d53	-0.11785378
150	0x3e21b99f	0.15793465
151	0xbde4a720	-0.11164689
152	0x3d70921d	0.058733094
153	0xbbaf6e4b	-0.005353724
154	0x3d8fc44a	0.07019861
155	0xbe36cf78	-0.1785258
156	0xbe153316	-0.14570269
157	0xbd51b677	-0.051199403
158	0x3d80aaf3	0.06282606
159	0xbd8ad22c	-0.06778368
160	0x3aaec0a0	0.0013332553
161	0xbe313404	-0.17304999
162	0x3d32a539	0.0436146
163	0xbe7374a7	-0.23774968
164	0xbd2bc8fe	-0.041939728
165	0xbd55cc3b	-0.052196722
166	0xbe4c0cef	-0.19926809
167	0x3df44dd7	0.11928909
168	0xbe32af39	-0.17449655
169	0x3c8329e3	0.016011184
170	0xbe38708d	-0.18011685
171	0xbe211ff4	-0.15734845
172	0xbcbbb20b	-0.022912046
173	0xbd956384	-0.07294372
174	0xbe272a3a	-0.16324702
175	0x3e1aa763	0.15102915
176	0x3d25ab29	0.040446434
177	0xbd73c636	-0.0595152
178	0xbeb041e4	-0.3442527
179	0xbdbea7cb	-0.09309348
180	0xbdf94c29	-0.121727295
181	0xbded3a78	-0.11583418
182	0xbde9986d	-0.11406026
183	0x3db36b5e	0.08760713
184	0x3e21994e	0.15781137
185	0xbdd78521	-0.10523439
186	0x3e5df2fc	0.21674722
187	0x3e7d4e6f	0.24736951
188	0x3d0a7e0d	0.033811618
189	0x3cc23993	0.023709094
190	0x3e0c9c7c	0.13731569
191	0xbd23294b	-0.039834302
192	0x3e48b069	0.19598545
193	0x3da177e3	0.07884195
194	0xbe39b1aa	-0.1813418
195	0x3dfb2a60	0.12263942
196	0x3df64b7f	0.120261185
197	0x3e18f496	0.14937052
198	0xbe801a94	-0.25020278
199	0xbdcbeb22	-0.099569574
200	0x3ba76422	0.0051083723
201	0xbe0258ec	-0.12729234
202	0x3e0b9ddc	0.13634437
203	0x3d587df5	0.052854497
204	0xbd80ebbb	-0.06294962
205	0x3d04b10d	0.03239541
206	0xbe4a4732	-0.19753721
207	0xbd8a2c50	-0.06746733
208	0x3dfcfcd7	0.12352913
209	0x3e17ea1b	0.14835398
210	0x3caa43db	0.02078431
211	0xbe2df9d1	-0.16989829
212	0x3d7e9ded	0.06216233
213	0xbe252bff	-0.16130064
214	0xbe498676	-0.19680199
215	0x3ac1cf0b	0.0014786435
216	0x3d2fe5f3	0.042943906
217	0xbdd9995e	-0.106249556
218	0xbdcee8de	-0.1010301
219	0xbda1d460	-0.079018354
220	0xbe0b9ca9	-0.1363398
221	0xbe810dd0	-0.2520585
222	0xbe35440d	-0.1770174
223	0xbdb625ba	-0.088939145
224	0xbd59f6c5	-0.053213853
225	0xbe8351a7	-0.25648233
226	0x3ea7d43b	0.32779106
227	0x3d2e6d0c	0.042584464
228	0xbdff73c4	-0.124732524
229	0x3d549d2b	0.0519077
230	0x3d3e5a73	0.046472978
231	0xbdde2380	-0.10846615
232	0x3de1e382	0.11029722
233	0x3e236a16	0.15958437
234	0x3e0959be	0.1341314
235	0xbd44fc38	-0.048092097
236	0xbceae0b6	-0.028671604
237	0x3e139514	0.14412338
238	0x3d65c9d4	0.05610068
239	0x3e0ac4b6	0.13551602
240	0xbbbb974d	-0.0057248236
241	0xbe24b717	-0.16085468
242	0xbe25dd33	-0.16197662
243	0x3c408280	0.011749864
244	0xbb07c8cc	-0.002071905
245	0x3e2ee46e	0.17079327
246	0xbd6ea1d0	-0.058259785
247	0xbe185cea	-0.14879194
248	0xbdc15267	-0.09439545
249	0x3d90b55f	0.07065844
250	0xbbb73840	-0.0055914223
251	0x3e249e35	0.16075976
252	0xbd1335e8	-0.03594008
253	0xbe498d32	-0.19682768
254	0x3d88b047	0.06674247
255	0x3e3f2334	0.18665773

bias f4 [96]
0	0xbe44a34d	-0.1920292
1	0x3d178d91	0.037000243
2	0xbe00728b	-0.12543695
3	0xbd9b3dd6	-0.07580154
4	0xbcaa2af7	-0.02077244
5	0x3e4948ae	0.19656631
6	0xbc519d9f	-0.012793927
7	0x3e107c67	0.14109956
8	0x3e72169f	0.23641442
9	0x3dc8ddf3	0.098079585
10	0x3c87feb0	0.016600937
11	0xbe0b8c13	-0.13627653
12	0x3d93cb58	0.07216519
13	0xbd241e71	-0.040068094
14	0x3c90b2cb	0.01766338
15	0xbdd13675	-0.10215465
16	0xbe76aa31	-0.2408836
17	0xbdaf4821	-0.08558679
18	0xbe1eaefa	-0.15496436
19	0x3d05d4dc	0.0326737
20	0xbc6c521d	-0.014423874
21	0x3e440985	0.19144256
22	0x3e3154de	0.1731753
23	0x3da6dfce	0.08148156
24	0xbe0e84eb	-0.13917892
25	0x3e4cbc90	0.19993806
26	0xbd226ffb	-0.039657574
27	0xbd32db7a	-0.04366634
28	0xbd2a90f4	-0.041642144
29	0xbe4e120b	-0.2012407
30	0xbe595d43	-0.21226983
31	0xbd8d2e06	-0.06893544
32	0x3ae429d6	0.0017407488
33	0xbe48740e	-0.19575521
34	0x3e470af4	0.19437772
35	0xbd2e2d35	-0.04252358
36	0x3d952ef6	0.07284348
37	0xbe1d0be6	-0.1533657
38	0xbe46f99f	-0.1943116
39	0xbe2f4d40	-0.17119312
40	0xbc402bf7	-0.011729232
41	0x3d447c22	0.047969945
42	0x3db05252	0.08609451
43	0x3e06cebd	0.13164802
44	0xbdf981c4	-0.12182954
45	0x3d5c5e50	0.05380088
46	0x3e6a3242	0.22870734
47	0xbe427496	-0.18989787
48	0xbd275a4e	-0.040857606
49	0xbda9892e	-0.08278118
50	0x3dc74bc4	0.09731248
51	0xbe2d78ca	-0.16940609
52	0xbe0bbce7	-0.1364628
53	0xbe64aff0	-0.2233274
54	0x3dd78bc6	0.105247065
55	0xbe67cb6a	-0.2263619
56	0x3dae2ac9	0.08504254
57	0x3db44bc0	0.08803511
58	0x3d2eef62	0.042708762
59	0x3cf9146c	0.030405246
60	0x3e20de88	0.15709889
61	0xbe7de666	-0.24794921
62	0x3e39527e	0.18097875
63	0xbdc32aa8	-0.095296204
64	0x3d47984f	0.048729237
65	0x3d5087e6	0.050910853
66	0xbcd8cd7b	-0.026465168
67	0x3d84da9c	0.06487009
68	0x3d7c6281	0.06161738
69	0xbdc2c90f	-0.09511005
70	0xbd8ffafc	-0.07030293
71	0xbd31062b	-0.043218773
72	0xbe1ce759	-0.15322627
73	0xbdd0f3bb	-0.10202738
74	0x3e2c6d2e	0.16838524
75	0xbda12162	-0.078676954
76	0xbd8e5d55	-0.069513954
77	0xbe45fe6b	-0.19335334
78	0xbc725827	-0.014791525
79	0x3dea9213	0.11453643
80	0xbe0cdd97	-0.13756405
81	0x3dd78b32	0.10524596
82	0xbda3cbf8	-0.07997888
83	0x3cf141d9	0.029450344
84	0x3d7b67d4	0.061378315
85	0x3d0caf4e	0.03434687
86	0x3dce89ba	0.10084863
87	0xbe3b1324	-0.1826902
88	0x3d8b40ee	0.06799494
89	0x3cef623f	0.029221652
90	0x3ce14522	0.027498785
91	0x3e148306	0.14503106
92	0xbd7aa233	-0.06118984
93	0xbe420c5e	-0.1895003
94	0x3ded13d3	0.11576047
95	0x3d8eb87a	0.0696878

weight f4 [96, 96, 2]
0	0x3ce9c187	0.028534664
1	0xbd897dc3	-0.0671344
2	0xbd898111	-0.067140706
3	0xbe4cd324	-0.20002419
4	0xbc671336	-0.014103701
5	0x3c098d73	0.0083955405
6	0x3cdca4c8	0.026934043
7	0xbd9b3ef6	-0.07580368
8	0x3d7e5759	0.06209502
9	0xbd77ee35	-0.060529906
10	0x3da7f41c	0.08200857
11	0xbcb97832	-0.022640321
12	0xbc9a932e	-0.018869009
13	0xbb285968	-0.0025688056
14	0xbbd75a46	-0.0065720407
15	0x3c6ceff6	0.014461508
16	0xbcf9962c	-0.030467115
17	0xbdedb519	-0.11606807
18	0x3b0a03f7	0.0021059492
19	0xbc89f0df	-0.01683849
20	0x3c86062d	0.016360367
21	0x3d05e34c	0.03268747
22	0x3a1b7854	0.0005930711
23	0xbc6b1f84	-0.014350776
24	0x3c4835fd	0.012219903
25	0x3d9139a1	0.0709107
26	0x3d914be8	0.07094556
27	0xbd89f206	-0.067356154
28	0x3d31938c	0.043353602
29	0xbd94fc20	-0.072746515
30	0x3cc00652	0.023440514
31	0xbdd3c27e	-0.10339831
32	0xbca1271a	-0.019671965
33	0xbb8857a8	-0.00416084
34	0x3da25d5c	0.07927963
35	0x3d22e195	0.039765913
36	0x3d17cd5c	0.03706108
37	0x3cc854a5	0.024454424
38	0xbd82e49f	-0.06391262
39	0xbd77e6e0	-0.060522914
40	0x3d542fbc	0.051803336
41	0xbbb78e17	-0.005601655
42	0x3e1e2970	0.15445495
43	0x3cd797ba	0.026317466
44	0x3db16bb7	0.08663123
45	0x3c80330d	0.015649343
46	0xbd5dfe05	-0.05419733
47	0x3d0f6fc8	0.035018712
48	0xbcf83a1e	-0.03030115
49	0x3ded0203	0.11572649
50	0xbcb0741f	-0.021539746
51	0x3b93432b	0.004494091
52	0x3d4c4569	0.049870882
53	0x3dd41071	0.103546984
54	0xbe136d56	-0.14397177
55	0xbdb34b3e	-0.08754586
56	0x3d04d63e	0.03243088
57	0xbd436509	-0.047703777
58	0x3db241bb	0.08703943
59	0x3d984848	0.074356616
60	0xbc2aef02	-0.01043296
61	0xbd06de8b	-0.032927077
62	0xbcf84795	-0.03030757
63	0xbc8e09c1	-0.017338635
64	0xbd156ee0	-0.03648269
65	0xbc09944e	-0.008397175
66	0xbd979b8e	-0.074027166
67	0x3ced139d	0.028940016
68	0x3d3ab332	0.04558105
69	0x3d6210c5	0.055191774
70	0xbd90949b	-0.07059594
71	0xbc2d66c5	-0.010583584
72	0xbc688eb0	-0.014194176
73	0x3b7abb57	0.0038258636
74	0x3d4e4b15	0.050364573
75	0xbced7449	-0.028986113
76	0x3e183f9e	0.14868018
77	0x3dc25b69	0.09490091
78	0x3d71853f	0.058964964
79	0xbd534305	-0.051577587
80	0x3d778df9	0.06043813
81	0x3d6c480e	0.057685904
82	0x3d6f3170	0.058396757
83	0x3b046130	0.002019953
84	0x3d221dd7	0.03957924
85	0x3d61c8c7	0.055123117
86	0xbd93df6a	-0.07220347
87	0x3cebf6aa	0.028804142
88	0x3cfd12b3	0.030892706
89	0x3d472c13	0.048626017
90	0x3d9812d8	0.07425469
91	0x3dbda8ec	0.09260735
92	0x3d19476e	0.037421636
93	0x3cb23dea	0.021758039
94	0x3dc80e0a	0.09768303
95	0x3d4d3e4f	0.05010825
96	0xbd111c58	-0.03542742
97	0xba10f274	-0.00055292924
98	0xbd7f8de1	-0.062391166
99	0x3d367bca	0.04455165
100	0x3cc30de7	0.02381034
101	0xbdbff355	-0.09372584
102	0xbd81c209	-0.063358374
103	0x3d7bbfa6	0.061462067
104	0xbe239ef6	-0.15978608
105	0xbe0614ff	-0.13093947
106	0xbcd0820e	-0.02545264
107	0x3d922c2a	0.0713733
108	0xbb89c395	-0.0042042234
109	0x3d5bc596	0.05365523
110	0x39e4db18	0.00043650786
111	0x3d84f543	0.064920925
112	0x3c68576e	0.014181001
113	0xbd87bf81	-0.06628323
114	0xbd4ba2c0	-0.049715757
115	0xbd5a980e	-0.053367667
116	0x3cf1c8ac	0.029514633
117	0x3ce88613	0.028384244
118	0x3d18e071	0.03732342
119	0x3dacb0e7	0.08432179
120	0xbdea231c	-0.11432478
121	0xbcaaa4af	-0.02083048
122	0xbcad75ff	-0.021174429
123	0x3d8107d1	0.06300319
124	0xbcaadbba	-0.020856727
125	0xbdab6dc4	-0.083705455
126	0xbe176e22	-0.14788106
127	0xbd424fe1	-0.04743946
128	0x3d29c712	0.041449614
129	0x3c84ef01	0.016227247
130	0x3be98ef5	0.0071276375
131	0xbd661577	-0.056172814
132	0xbd7f2c7c	-0.062298283
133	0xbd91c89a	-0.0711834
134	0xbcc37144	-0.02385772
135	0xbde1c178	-0.11023229
136	0xbd87989a	-0.06620903
137	0xbce7446d	-0.02823087
138	0xbcf99bc9	-0.030469792
139	0x3cda325e	0.026635345
140	0xbbe19eae	-0.006885371
141	0x3c77310a	0.015087375
142	0x3d9c5d14	0.07634941
143	0x3cc0eb0e	0.023549583
144	0xbd17a74e	-0.03702479
145	0x3d8bbfe1	0.06823707
146	0x3d869bc6	0.0657268
147	0xbbeea3fd	-0.0072827325
148	0x3c38c8e0	0.011278361
149	0x3d407164	0.046983138
150	0xbd8be2d9	-0.06830377
151	0x3d14c4d7	0.036320534
152	0x3d8b9cfa	0.0681705
153	0x3c3f8f2e	0.011691852
154	0xbd8ae164	-0.06781271
155	0x3c8a533f	0.016885398
156	0x3caca481	0.021074535
157	0x3ca869ad	0.020558203
158	0xbcba0387	-0.02270676
159	0x3c3cad5e	0.011515943
160	0x3d8470a2	0.064667955
161	0xbc6288da	-0.013826573
162	0xbd48892c	-0.048958942
163	0x3cc6d5c8	0.02427186
164	0x3da0bc25	0.07848386
165	0xbd447432	-0.047962375
166	0xbd037084	-0.032089725
167	0x3d293907	0.04131415
168	0x3da7b871	0.08189476
169	0xbc9d46c1	-0.019198777
170	0xbc17d023	-0.009265932
171	0xbd5da5ce	-0.0541132
172	0x3d7f2ee3	0.062300574
173	0x3cc4ed09	0.024038808
174	0xbd73e2a1	-0.059542302
175	0x3d709ddd	0.0587443
176	0x3da301b0	0.07959306
177	0x3cc6ea4f	0.024281649
178	0x3de6238b	0.11237248
179	0x3c570984	0.013124827
180	0x3ca4b4a6	0.020105671
181	0x3da84d2c	0.08217844
182	0xbd22db4b	-0.039759915
183	0xbdc83305	-0.09775356
184	0x3d79a854	0.060951546
185	0x3d211fe8	0.03933707
186	0x3bd837d0	0.0065984502
187	0x3d3b4a08	0.0457249
188	0x3d34037f	0.043948647
189	0x3d2455f7	0.040121045
190	0x3d9e22ab	0.07721456
191	0xbcd3b5e5	-0.02584357
192	0xbcd07225	-0.025445053
193	0xbd84b1ed	-0.06479249
194	0x3d076386	0.033053897
195	0x3dcec0aa	0.100953415
196	0x3d22718d	0.03965907
197	0xbac97331	-0.0015369413
198	0x3bcde682	0.006283582
199	0xbbec095d	-0.0072032646
200	0xbd7a3a8b	-0.061090987
201	0x3c37dcda	0.011222089
202	0x3cb5c496	0.022188466
203	0x3d0c99f9	0.034326527
204	0xbdcd0af6	-0.10011856
205	0x3d8d3c33	0.06896248
206	0xbdb33f34	-0.087522894
207	0xbc8a59d0	-0.016888529
208	0xbd782169	-0.060578737
209	0x3d298827	0.04138961
210	0xbc4a7f95	-0.0123595195
211	0xbd2f3180	-0.042771816
212	0xbe075ca6	-0.13218936
213	0xbc17690c	-0.009241354
214	0x3d28cf3f	0.04121327
215	0xbc5847e2	-0.013200732
216	0x3c735525	0.014851843
217	0xbd1a8507	-0.03772452
218	0xbdf2ebcf	-0.11861383
219	0x3dea6341	0.114447124
220	0x3be824c8	0.007084463
221	0xbd40a75a	-0.0470346
222	0xbdb9cf64	-0.0907276
223	0x3d5d530b	0.054034274
224	0x3c62ef7a	0.013851041
225	0xbcaef06e	-0.02135488
226	0xbd838a17	-0.06422823
227	0x3c2482ae	0.010040922
228	0xbcad637e	-0.021165606
229	0x3c25d69d	0.010121969
230	0x3d57d0de	0.052689426
231	0x3d729e2e	0.059232883
232	0xbce8fbc7	-0.02844037
233	0xbcf040aa	-0.02932771
234	0xbd0e03c4	-0.03467156
235	0x3c839fbf	0.016067384
236	0x3e017100	0.12640762
237	0xbc91afbb	-0.01778399
238	0x3d8945a3	0.06702735
239	0x3bdeee30	0.0068032965
240	0xbd24377c	-0.040091977
241	0x3d54ad0c	0.051922843
242	0xbbf2f669	-0.0074146283
243	0x3d026af2	0.031840272
244	0x3caa151d	0.02076202
245	0xbdc5f15f	-0.096651785
246	0xbb97f9dc	-0.00463794
247	0xbc81ca82	-0.015843634
248	0x3d8bc8ae	0.06825386
249	0xbd9276ad	-0.07151542
250	0x3b1ec420	0.0024225786
251	0xbde74478	-0.11292356
252	0x3d788881	0.060677055
253	0x3c067f55	0.008209069
254	0x3d3682f7	0.04455849
255	0x3d1abab2	0.037775703

bias f4 [96]
0	0x3c26a6d5	0.010171612
1	0xbb7f3967	-0.0038944127
2	0xbd950901	-0.07277108
3	0xbd0f48b7	-0.034981456
4	0xbd958832	-0.07301368
5	0x3d287e18	0.041135877
6	0xbc3c9402	-0.011509897
7	0x3d26ff14	0.040770605
8	0x3d44cf18	0.048049062
9	0x3d747c37	0.059688773
10	0x3d96a217	0.07355135
11	0xbcd4511b	-0.02591758
12	0xbd16c6e5	-0.036810774
13	0xbd87c900	-0.066301346
14	0x3badee9d	0.005307986
15	0x3d15a3ad	0.036533047
16	0x3cef0fcc	0.029182337
17	0xbcaffc5f	-0.021482645
18	0xbdc092b1	-0.09402979
19	0xbc9d80b7	-0.019226415
20	0xbdb5b994	-0.08873287
21	0xbd9ca01f	-0.07647728
22	0xbd20443c	-0.039127573
23	0x3c1373de	0.008999793
24	0x3c25208c	0.010078561
25	0x3ce9d781	0.028545143
26	0xbd89f3da	-0.06735964
27	0x3d4b8d9c	0.049695596
28	0xbbb360c1	-0.0054741804
29	0xbd843968	-0.06456262
30	0xbd0a3af2	-0.03374762
31	0xbd505a1c	-0.050867185
32	0x3c15f9a0	0.0091537535
33	0xbd21f97e	-0.039544575
34	0x3d1f2420	0.03885281
35	0xbd0d44e0	-0.034489512
36	0x3d318a79	0.04334495
37	0xbda5d5cb	-0.080974184
38	0x3c466f33	0.012111473
39	0xbd5db5ff	-0.054128643
40	0xbd0bd9e1	-0.034143332
41	0xbd961d82	-0.07329847
42	0x3cf898f3	0.03034637
43	0x3bf3b71a	0.007437599
44	0x3cb5f9cc	0.022213839
45	0xbd1ec7b0	-0.038764656
46	0xbd9ba8ae	-0.076005325
47	0xbd06f452	-0.032947846
48	0x3c54e106	0.012993103
49	0x3d53c640	0.051702738
50	0xbd5ba3d7	-0.053623047
51	0xbced6927	-0.028980805
52	0x3c9c88b8	0.019108161
53	0xbae6e6ea	-0.0017616425
54	0xbd6ef778	-0.058341473
55	0xbc94f8d8	-0.018185064
56	0x3d667bf0	0.05627054
57	0x3cc1a770	0.02363941
58	0x3cdc3671	0.026881428
59	0xbd42e246	-0.047579072
60	0xbbbb4193	-0.005714604
61	0xbd1a5543	-0.03767897
62	0xbc7c4d39	-0.015399271
63	0x3c841d7f	0.016127346
64	0x3d5556f5	0.05208488
65	0xbd8d0486	-0.068856284
66	0x3d3440ff	0.044007298
67	0xbc6b7399	-0.014370822
68	0x3cb9eda5	0.022696326
69	0xbd70b90f	-0.058770236
70	0xbd4cad8f	-0.049970206
71	0x3c28c0a9	0.01029984
72	0xbc9d672b	-0.019214233
73	0xbd18b249	-0.0372794
74	0x3d1d23ce	0.038364224
75	0xbd4f4cdf	-0.05061042
76	0xbcf2891b	-0.029606393
77	0xbd3adb2b	-0.04561917
78	0xbd927e25	-0.071529664
79	0xbd54ad2d	-0.051922966
80	0xbcd1f0db	-0.025627544
81	0xbd92a3f8	-0.07160181
82	0x3c62fa94	0.013853688
83	0x3ce774f8	0.028254017
84	0xbdc92a86	-0.09822564
85	0x3cafecb1	0.021475168
86	0xbd709c3a	-0.05874274
87	0x3d9356fe	0.07194327
88	0xbd93603f	-0.07196092
89	0x3b6c317a	0.0036040233
90	0xbcaee069	-0.021347241
91	0x3ba4f44e	0.005034006
92	0x3b9e5b50	0.0048326626
93	0xbd8e6f24	-0.06954792
94	0x3cf04a27	0.029332234
95	0xbd3ac466	-0.045597456

weight f4 [96, 96, 2]
0	0xbd4f04e6	-0.05054178
1	0x3d2856f9	0.04109857
2	0x3d47c874	0.04877515
3	0xbbdb346e	-0.0066895997
4	0x3c8da568	0.017290786
5	0xbd6e9220	-0.058244824
6	0xbc834e3d	-0.016028518
7	0x3d96d61c	0.07365057
8	0xbd197d51	-0.037473027
9	0xbd6a8ce6	-0.057263277
10	0xbd772cd4	-0.060345486
11	0x3c746941	0.014917673
12	0xbc5554cb	-0.0130207045
13	0xbc6db434	-0.014508296
14	0x3d2aac44	0.04166819
15	0xbd59f820	-0.053215146
16	0x3c566f25	0.013088022
17	0x3dbf918c	0.09353933
18	0x3b4ec936	0.0031553037
19	0x3d714e0e	0.05891233
20	0x3d674b01	0.056468014
21	0x3c46262e	0.012094064
22	0xbdaaea73	-0.08345499
23	0xbd8d6ec6	-0.06905894
24	0x3d8c4fde	0.06851171
25	0x3d3e3ff4	0.04644771
26	0x3e0e6b5c	0.13908142
27	0x3e16e6b2	0.14736441
28	0x3ce9fed9	0.028563904
29	0xbd6d6e80	-0.05796671
30	0xbd2bc739	-0.04193804
31	0x3d705a94	0.058680132
32	0xbd650f0e	-0.05592256
33	0xbb734d8a	-0.0037125074
34	0x3d95c160	0.07312274
35	0x3caece38	0.021338567
36	0xbc874559	-0.01651256
37	0xbc1e8a10	-0.009676471
38	0x3c8b4922	0.017002646
39	0xbd1b9a12	-0.03798873
40	0x3d479d7a	0.048734166
41	0x3d3e1229	0.046404038
42	0x3c8d728d	0.017266536
43	0xbd2433b0	-0.040088356
44	0x3da02fab	0.07821592
45	0x3dafa7da	0.08576937
46	0x3d1f3119	0.038865183
47	0x3c977dc3	0.018492585
48	0x3c9e42ac	0.019318901
49	0xbd1953b0	-0.037433326
50	0x3c69a170	0.014259681
51	0xbce4aad2	-0.027913485
52	0xbcba003a	-0.022705186
53	0xbd3f61cc	-0.046724126
54	0x3d758aba	0.059946753
55	0x3d35dfd6	0.04440292
56	0xb887ff59	-6.484864e-05
57	0xbc0e7070	-0.008693799
58	0x3d661bfb	0.056179028
59	0x3daa543e	0.08316849
60	0x3c9ac1ff	0.018891333
61	0x3d90234d	0.07037983
62	0x3cee6a5c	0.02910345
63	0x3d3302ee	0.043703966
64	0x3c29d801	0.010366441
65	0x3da98db5	0.082789816
66	0x3d2992c8	0.041399747
67	0xbd3ebd9d	-0.046567548
68	0xbcc7de7b	-0.02439808
69	0x3d3e1586	0.046407245
70	0x3cbe8ee8	0.023261502
71	0xbcbc429c	-0.02298098
72	0x3d27d86b	0.040977877
73	0x3d5e070c	0.05420594
74	0xbe0cc2bd	-0.13746162
75	0xbe220fb3	-0.15826301
76	0xbd86b0e2	-0.065767065
77	0xbdaf1d03	-0.085504554
78	0x3d467cba	0.048458792
79	0x3d4ad6a2	0.049521096
80	0xbc0a2fe6	-0.008434271
81	0x3da87f5e	0.08227418
82	0xbcdee926	-0.027210783
83	0xbce68944	-0.028141625
84	0x3d67c52f	0.056584533
85	0xbd5a9300	-0.053362846
86	0x3d1ced06	0.03831198
87	0xbd7ac039	-0.061218474
88	0x3d62f831	0.055412475
89	0x3d4d1f14	0.050078467
90	0xbd42bd94	-0.047544077
91	0x3caefa0e	0.02135947
92	0x3d2b6262	0.041841872
93	0xbd4d302a	-0.05009476
94	0x3c24c90c	0.010057699
95	0x3dd02295	0.10162846
96	0xbdbb1fa3	-0.091368936
97	0xbdfc5d9b	-0.12322541
98	0xbb78e764	-0.0037979716
99	0x3d366bed	0.04453652
100	0x3d963bbe	0.07335614
101	0x3d15f423	0.03660978
102	0x3d4cca87	0.049997833
103	0x3d07b321	0.033129815
104	0x395a4a69	0.0002081782
105	0xbd996220	-0.07489419
106	0xbd535e2a	-0.051603474
107	0x3d1a998d	0.037744094
108	0x3dd1ab01	0.102376945
109	0x3d4adc4b	0.049526494
110	0x3d6fe879	0.058571313
111	0x3da6bd01	0.081415184
112	0xbc2cad08	-0.010539301
113	0x3c651698	0.013982438
114	0xbc185eea	-0.009299973
115	0xbdb32542	-0.08747341
116	0xbcc91704	-0.024547108
117	0x3d6bd69a	0.057577707
118	0x3bdb1d8f	0.0066868733
119	0x3d234c91	0.03986794
120	0xbd6d5341	-0.057940725
121	0xbbe450b8	-0.0069676302
122	0xbca374de	-0.019953188
123	0xbd0e0b3f	-0.034678694
124	0xb8774652	-5.895488e-05
125	0xbd16498f	-0.036691245
126	0x3c3249c0	0.010881841
127	0xbdc6673c	-0.09687659
128	0x3dc92756	0.09821956
129	0x3d89246e	0.066964015
130	0x3d3da857	0.04630312
131	0x3db38d22	0.08767153
132	0x3d1e54eb	0.038655203
133	0xbd2e053f	-0.04248547
134	0xbe0baab7	-0.13639341
135	0xbdae80b7	-0.08520644
136	0xbcdca962	-0.026936237
137	0x3c72364d	0.014783454
138	0x3d60eefa	0.054915406
139	0xbd282721	-0.04105294
140	0xbcab0d8f	-0.020880489
141	0xbcd0e630	-0.025500387
142	0xbd1aa2dd	-0.037752975
143	0xbd2cffbd	-0.04223608
144	0xbb383326	-0.0028106659
145	0x3ba5ec0f	0.005063541
146	0x3d74e641	0.0597899
147	0xbce53cac	-0.027983032
148	0xbd75a3ab	-0.05997054
149	0x3ced8fa1	0.028999152
150	0x3d9494ca	0.07254942
151	0x3d7f3ee2	0.06231583
152	0x3d8f17b2	0.069869414
153	0x3d5e0c9e	0.05421125
154	0x3c668c1c	0.014071491
155	0x3d0e4b3c	0.034739718
156	0x3d05c39d	0.032657254
157	0x3d28ecad	0.041241337
158	0x3cb87b45	0.022519717
159	0x3c1a7665	0.0094276415
160	0xbd076d4d	-0.03306322
161	0xbc9496fe	-0.018138405
162	0x3d91fd2c	0.07128367
163	0x3cdd2005	0.026992807
164	0xbe1fa944	-0.15591913
165	0xbe58a7a5	-0.21157701
166	0xbd4a911f	-0.049454805
167	0x3d082a95	0.033243734
168	0x3d413b4d	0.047175694
169	0xbd2a7a72	-0.04162068
170	0x3cb582c6	0.022157084
171	0x3c1c5486	0.009541636
172	0x3ca24514	0.01980833
173	0x3cf8054a	0.03027596
174	0x3bf2904c	0.0074024554
175	0x3c608b78	0.013705127
176	0xbbf00dc8	-0.0073258616
177	0x3b6287f9	0.003456591
178	0x3dd1297b	0.1021299
179	0x3d1bfe85	0.038084526
180	0xbc6a5a8a	-0.014303813
181	0x3d51dd29	0.051236305
182	0x3d89516a	0.067049816
183	0x3c75920e	0.014988435
184	0x3b7837af	0.0037874987
185	0x3cab2517	0.02089171
186	0xbc95d776	-0.018291216
187	0x3d5345b0	0.05158013
188	0x3c639018	0.013889335
189	0x3bedd7ec	0.007258406
190	0xbd66708c	-0.056259677
191	0x3d2e6409	0.04257587
192	0x3d3ce415	0.046115953
193	0x3d235ab6	0.03988143
194	0x3d5c765a	0.053823806
195	0xbd484476	-0.048893414
196	0x3d192b51	0.037394825
197	0x3d0d6086	0.03451588
198	0x3d1a8477	0.037723985
199	0xbba378ed	-0.0049887807
200	0xbda9f0f6	-0.08297913
201	0xbc07d737	-0.008291057
202	0x3d6e2de4	0.058149233
203	0xbc961482	-0.018320326
204	0x3d005d6d	0.031339098
205	0xbd85a1ec	-0.06525025
206	0x3d356bf3	0.0442924
207	0xbd4e57e7	-0.0503768
208	0xbbb7cff3	-0.0056095063
209	0x3dbdf248	0.09274727
210	0xbce8b4be	-0.028406497
211	0xbd00da1c	-0.031458005
212	0xbc637c39	-0.013884597
213	0x3d803c32	0.06261481
214	0x3d19214a	0.037385263
215	0xbdb3d9e3	-0.08781793
216	0xbd03eed6	-0.032210194
217	0xbd889e0d	-0.06670771
218	0x3cfec953	0.031101858
219	0x3df880e6	0.121339604
220	0xbd71929a	-0.0589777
221	0x3d2401d1	0.040040795
222	0xbcff3e70	-0.031157702
223	0x3d534bf4	0.051586106
224	0xbce7984e	-0.028270867
225	0xbd95c79c	-0.07313463
226	0x3a2482b8	0.0006275582
227	0xbd93f927	-0.072252564
228	0x3daad211	0.08340848
229	0x3d9189a0	0.07106328
230	0xbcbe03b5	-0.023195127
231	0x3c206d9d	0.009791759
232	0xbbb495b5	-0.0055110105
233	0xbc165a30	-0.009176776
234	0xbcf2e73e	-0.02965128
235	0x3d86b0e7	0.0657671
236	0x3d210d00	0.03931904
237	0xbd221e1c	-0.039579496
238	0x3c893e4f	0.016753344
239	0xbbe754fa	-0.0070596905
240	0x3c6bdd7d	0.014396069
241	0x3d85b9c5	0.06529573
242	0xbd51ecf7	-0.051251378
243	0x3db020f8	0.08600038
244	0x3d4581e5	0.04821958
245	0x3da2ae08	0.0794335
246	0x3d616533	0.05502815
247	0x3d831af4	0.06401625
248	0xbceb7617	-0.028742833
249	0xbc7f1a83	-0.015570286
250	0x3da46ee6	0.08028965
251	0x3d781e18	0.060575575
252	0x3c926d77	0.017874463
253	0x3aa2bbe7	0.0012415618
254	0xbcc4f34f	-0.0240418
255	0xbd4a82b4	-0.049441054

bias f4 [96]
0	0x3c44d99d	0.012014774
1	0x3d393a8a	0.045221843
2	0xbd474dc4	-0.048658147
3	0xbb574c13	-0.003285174
4	0x3d253cf4	0.040341333
5	0xbd1f8cc7	-0.038952615
6	0x3ba1a8d3	0.0049334555
7	0xbc878200	-0.016541481
8	0x3d80d1a6	0.06289987
9	0xbd123bf5	-0.03570171
10	0xbd454d7e	-0.048169605
11	0x3bc2e4ac	0.00594767
12	0x3d06e51e	0.032933347
13	0x3a1a149b	0.0005877704
14	0xbb7216f8	-0.003693996
15	0xbd0f2f53	-0.03495724
16	0x3c38caeb	0.011278848
17	0xbc41cc1a	-0.011828447
18	0xbd0e5fe0	-0.034759402
19	0x3d52a447	0.0514262
20	0x3c7b6066	0.015342807
21	0x3c5f95b1	0.013646529
22	0xbbb29dfd	-0.0054509626
23	0x3d45041a	0.048099615
24	0xbd977251	-0.07394851
25	0x3d1d7f0b	0.038451236
26	0x3cc5141a	0.024057437
27	0x3da1b159	0.078951545
28	0x3d8097d6	0.062789604
29	0x3ce38673	0.027774071
30	0x3d17c6ab	0.0370547
31	0x3d219703	0.039450657
32	0x3c68c47c	0.014207002
33	0x3d2ee59f	0.042699452
34	0x3cdc7583	0.026911503
35	0xbc917621	-0.017756524
36	0x3ca974a7	0.020685507
37	0x3d83c7ec	0.064346164
38	0x3cc06a83	0.023488289
39	0x3d79d99a	0.060998537
40	0xbd321338	-0.04347536
41	0xbd213b98	-0.039363474
42	0x3c8071da	0.015679289
43	0x3a85b070	0.0010199677
44	0x3d149414	0.03627403
45	0x3d1d9609	0.038473163
46	0xbb8b47b7	-0.0042504924
47	0x3d8ef14b	0.06979617
48	0x3d7b61fb	0.06137274
49	0xbd022a42	-0.03177858
50	0xbd378c81	-0.04481173
51	0xbd258d3a	-0.040417887
52	0xbbde41ac	-0.006782731
53	0xbd1fcfc6	-0.039016508
54	0x3d16a13c	0.03677486
55	0x3c71bed2	0.014754968
56	0x3dab34ed	0.08359704
57	0x3d1a9492	0.037739344
58	0x3d9a3b63	0.07530858
59	0x3d9f9e57	0.07793873
60	0xbd50d085	-0.05098011
61	0x3c71536a	0.01472936
62	0xbd56b2d5	-0.05241664
63	0x3d783d89	0.06060556
64	0x3ab7bbfa	0.0014017813
65	0xbcc1c831	-0.023655029
66	0xbbae17b5	-0.0053128847
67	0x3d07b8c2	0.033135183
68	0x3d70183e	0.05861687
69	0xbd405b75	-0.04696222
70	0xbdab7547	-0.08371978
71	0xbda418db	-0.08012553
72	0xbc060d18	-0.008181833
73	0x3a59dea7	0.0008311071
74	0x3caa3d11	0.020781072
75	0x3d0e6cc7	0.034771707
76	0x3ca02d00	0.019552708
77	0x3d8f30b5	0.06991712
78	0xbdabd48f	-0.08390152
79	0xbd73d677	-0.0595307
80	0x3d3a3ee7	0.045470145
81	0x3ce1b85b	0.027553728
82	0x3d0e9512	0.034810133
83	0x3c01d342	0.007923903
84	0x3b35ebb2	0.0027758894
85	0x3d30966b	0.0431122
86	0x3d89f99e	0.06737064
87	0x3b617341	0.0034400972
88	0x3d9ba187	0.07599168
89	0xbd293e6e	-0.041319303
90	0xbcf787af	-0.030216066
91	0x3c907bd1	0.017637165
92	0x3d6dba7e	0.05803918
93	0xba4df743	-0.0007856974
94	0x3c8f3ce3	0.017485088
95	0x3cb28595	0.021792213

weight f4 [96, 96, 2]
0	0xbd15993d	-0.036523093
1	0xbceb5b59	-0.028730081
2	0xbce3020d	-0.027710939
3	0xbd39d611	-0.045370165
4	0x3c6bd903	0.014395001
5	0xbc6b2614	-0.01435234
6	0x3c7b3fb8	0.015335016
7	0xbc6d28e7	-0.014475084
8	0x3d10314d	0.035203267
9	0x3d01aa12	0.031656332
10	0xbd8508a9	-0.064957924
11	0xbd66859e	-0.05627977
12	0xbcb5ef6c	-0.022208892
13	0xbd5c2a6d	-0.053751398
14	0xbd9ecf61	-0.07754398
15	0xbd29971d	-0.04140388
16	0x3d523836	0.05132314
17	0xbdb9ec91	-0.090783246
18	0xbd65f956	-0.05614599
19	0xbcdff097	-0.027336402
20	0xbd88a1f3	-0.06671514
21	0x3d68579f	0.056724187
22	0xbd92e952	-0.071734086
23	0x3b8b5acd	0.0042527677
24	0xbd4e2e38	-0.050337046
25	0x3d3e5fcd	0.04647808
26	0xbc72639d	-0.0147942575
27	0x3dd1b0d3	0.10238805
28	0xbd89875b	-0.0671527
29	0xbcf1d9ce	-0.029522803
30	0x3c89c0ba	0.016815532
31	0xbd1749fa	-0.036935784
32	0x3d00895d	0.031381
33	0xbcd49c18	-0.025953338
34	0xbcca7898	-0.024715707
35	0xbd382bbd	-0.044963587
36	0xbd9a55ed	-0.0753592
37	0xbd2a3396	-0.041553102
38	0xbcb2d406	-0.021829616
39	0x3cb3b545	0.021937022
40	0xbd12c08e	-0.035828166
41	0xbcfccc14	-0.03085903
42	0x3d713163	0.05888499
43	0xbdf122b8	-0.117742
44	0xbd928b11	-0.07155431
45	0xbc633742	-0.013868155
46	0xbc65ff4c	-0.014037918
47	0xbd96d441	-0.07364703
48	0x3d190b49	0.037364278
49	0xbd7a2477	-0.06106993
50	0xbd8a2155	-0.06744639
51	0x3db27c70	0.08715141
52	0xbd34c6e9	-0.044135008
53	0xbc9715d0	-0.018443018
54	0x3d41c2b8	0.04730484
55	0x3d2f8f1d	0.042861093
56	0x3861acbb	5.3805048e-05
57	0x3d73352c	0.05937688
58	0xbd712ef7	-0.05888268
59	0xbc79bca1	-0.015242727
60	0x3d5ff2cc	0.05467491
61	0x3b8051a9	0.0039159846
62	0xbca2abaa	-0.019857246
63	0xbd3e9236	-0.046526156
64	0xbd7d20c8	-0.06179884
65	0x3bd228d5	0.006413559
66	0x3d3feadd	0.046854842
67	0xbbde775c	-0.006789131
68	0x3cd66484	0.026170976
69	0xbdd283ab	-0.1027902
70	0x39c60055	0.0003776575
71	0xbdbc4b63	-0.091940664
72	0x3d6220fd	0.05520724
73	0xbcb31279	-0.021859394
74	0xbd52e09d	-0.05148374
75	0xbd4d8426	-0.050174855
76	0x3d2d61a4	0.042329445
77	0x3d88897c	0.06666848
78	0x3bf2d2e3	0.0074103936
79	0x3d4aea75	0.049540002
80	0xbc526410	-0.01284124
81	0xbd0c2882	-0.03421832
82	0x3bcbecd0	0.0062232986
83	0x3d7880cc	0.060669705
84	0xbba677ff	-0.0050802226
85	0x3d43cc64	0.047802344
86	0xbbd57f49	-0.0065154177
87	0xbcd36f30	-0.025809854
88	0x3d4aa63d	0.049474943
89	0xbd4feca6	-0.050762795
90	0xbd02444b	-0.03180341
91	0xbc71110e	-0.014713539
92	0x3beeb713	0.0072850077
93	0xbbac165d	-0.0052516893
94	0xbd944a33	-0.07240715
95	0xbd204fb5	-0.039138515
96	0xbd97efc1	-0.07418776
97	0xbdc6f962	-0.09715535
98	0x3c8904ba	0.016725887
99	0xbd16b45f	-0.03679311
100	0xbd113a90	-0.03545624
101	0xbd33d3c1	-0.043903116
102	0xbd1b7f32	-0.0379631
103	0xbd6929a6	-0.056924485
104	0xbd2362b9	-0.03988907
105	0xbcf9648e	-0.030443456
106	0x3ccb7f31	0.024840923
107	0xbd49165c	-0.04909359
108	0xbd916be7	-0.07100659
109	0x3d7930e3	0.060837638
110	0xbd12411d	-0.035706628
111	0xbdb066de	-0.0861337
112	0x3d77fb67	0.06054249
113	0xbbd64cc9	-0.006539915
114	0xbd384bad	-0.044994045
115	0x3d0dfe08	0.03466609
116	0xbc0f2354	-0.00873645
117	0x3ce31287	0.027718795
118	0x3c4a2738	0.012338452
119	0xbdd64617	-0.10462587
120	0x3bd10507	0.006378773
121	0x3d2f7753	0.042838406
122	0xbd48093d	-0.048836935
123	0x3d48d369	0.04902974
124	0xbd5e74ae	-0.054310493
125	0x3d9b7976	0.07591526
126	0x3cf63cae	0.030058231
127	0xbdd6812b	-0.104738556
128	0xbc639b4f	-0.013892009
129	0x3d9afccd	0.07567749
130	0x3d391e00	0.045194626
131	0xbd65bee3	-0.056090247
132	0xba85a380	-0.0010195822
133	0xbb1e7d57	-0.0024183595
134	0xbd2ad6a8	-0.04170862
135	0xbd8938df	-0.067003004
136	0xbce09b8c	-0.02741792
137	0x3d0d1ae4	0.034449473
138	0xbd64ada7	-0.05582967
139	0xbc73ec22	-0.014887841
140	0x3d83a92f	0.064287536
141	0x3c7e510d	0.015522254
142	0x3d46b1c3	0.04850937
143	0xbd5f8032	-0.054565616
144	0x3d76745a	0.060169555
145	0x3d344b72	0.044017263
146	0xbd05d116	-0.032670103
147	0xbd1dc42b	-0.03851716
148	0x3d010750	0.031501114
149	0xbda16233	-0.07880058
150	0xbd2d0bb8	-0.042247504
151	0xbd87c2dc	-0.06628963
152	0xbd8f012e	-0.06982647
153	0x39343712	0.00017186653
154	0xbd4658a9	-0.048424397
155	0xbce35758	-0.02775161
156	0xbd169721	-0.03676522
157	0x3d4bb56a	0.049733557
158	0xbd8bf674	-0.068341166
159	0xbdb17282	-0.08664419
160	0xbd1c87ce	-0.03821545
161	0xbc856cb0	-0.016287178
162	0xbd251a62	-0.040308364
163	0xbccdf60d	-0.02514174
164	0x3d062126	0.032746457
165	0x3cb91f55	0.022597948
166	0xbd76632e	-0.06015318
167	0x3c8bf66a	0.017085273
168	0xbcd381bd	-0.0258187
169	0x3d34e60d	0.044164706
170	0xbcf02f84	-0.029319532
171	0xbdce1fda	-0.10064669
172	0x3d628f71	0.055312578
173	0x3c06f72d	0.008237642
174	0xbd2e7b90	-0.042598307
175	0xbd2e7eaf	-0.042601284
176	0xbd73ca9b	-0.05951939
177	0xbdd943c3	-0.10608628
178	0xbd357ef9	-0.044310544
179	0xbd8df433	-0.06931343
180	0xbd676fe9	-0.05650321
181	0xbd8c78f1	-0.06859005
182	0xbc4468b6	-0.011987856
183	0x3b80ed76	0.0039345575
184	0xbd0df5fe	-0.034658425
185	0xbce92bd9	-0.028463291
186	0xbb5598d6	-0.0032592318
187	0xbdbc2e76	-0.09188549
188	0xbd8abc51	-0.067742
189	0x3d7be080	0.061493397
190	0xbd338ed8	-0.0438374
191	0x3c66e7dd	0.014093366
192	0x3d5e2b18	0.054240316
193	0x3d38b42f	0.04509371
194	0xbd32b75d	-0.0436319
195	0xbc8bf9f8	-0.017086968
196	0x3d3786f0	0.04480642
197	0x3c943985	0.018093834
198	0xbd237e7e	-0.039915554
199	0x3d972255	0.07379595
200	0x3da08476	0.07837765
201	0xbd8201cd	-0.06348
202	0x3d07ac51	0.033123318
203	0x3c6056d7	0.013692579
204	0xbddefcfa	-0.10888095
205	0xbdfbaa37	-0.12288325
206	0xbc389337	-0.0112655675
207	0xbd28d2a6	-0.041216515
208	0xbbadd59b	-0.005305005
209	0x3ca4a0e0	0.020096242
210	0x3d998635	0.07496301
211	0xbca0929d	-0.01960116
212	0xbd8c6c01	-0.068565376
213	0xbd0e401f	-0.03472912
214	0xba4926e2	-0.00076733355
215	0x3cefbba4	0.029264279
216	0xbc9e5134	-0.01932583
217	0xbd9c4c3c	-0.07631728
218	0xbe066c3c	-0.13127226
219	0xbe3b082b	-0.18264835
220	0xbd0c9ecc	-0.034331128
221	0x3d8e73a3	0.0695565
222	0x3bb2051e	0.005432739
223	0x3d5aaf0d	0.053389598
224	0x3c892150	0.016739517
225	0xbd4f631b	-0.050631624
226	0x3c51cad1	0.012804703
227	0x3c22d8f7	0.009939424
228	0x3d72341e	0.059131734
229	0x3dc8c7f9	0.09803767
230	0x3c8f8ecb	0.017524144
231	0x3dc14685	0.09437279
232	0x3d316e72	0.04331822
233	0x3e020571	0.12697388
234	0xbd179db7	-0.037015643
235	0x3d1e3ac4	0.038630262
236	0xbd48a825	-0.04898848
237	0x3db50332	0.088385
238	0xbd65a3b8	-0.056064337
239	0x3c93fccc	0.018064879
240	0xbb8bf615	-0.0042712786
241	0xbd8129cd	-0.06306801
242	0xbe117296	-0.14203867
243	0xbea18a79	-0.3155096
244	0x3c7e9b6e	0.015539987
245	0x3d795fd7	0.060882416
246	0xbc1644e9	-0.009171703
247	0x3cfa4ad5	0.03055326
248	0xbd502116	-0.050812803
249	0xbe464dfc	-0.19365686
250	0x3bbd1c0d	0.005771166
251	0x3d851f4e	0.065001115
252	0x3d36175c	0.04445587
253	0x3d909582	0.07059766
254	0x3d3b6406	0.045749687
255	0x3d8b3582	0.06797315

bias f4 [96]
0	0x3d111ab0	0.03542584
1	0x3e069656	0.13143286
2	0x3d4d6234	0.050142482
3	0x3dd81e94	0.10552707
4	0x3e0bbb20	0.13645601
5	0x3d3969db	0.045266967
6	0x3e1fc521	0.15602542
7	0x3d9c7095	0.07638661
8	0x3e28d262	0.16486505
9	0x3da7bbfd	0.08190153
10	0x3d090b38	0.033457965
11	0x3df90e78	0.12160963
12	0x3e0d3730	0.13790584
13	0x3df7a210	0.12091458
14	0x3d016600	0.031591415
15	0x3d295c33	0.041347694
16	0x3de6d73e	0.11271523
17	0x3e1dcb18	0.15409505
18	0x3c2c699f	0.010523229
19	0x3dca4acf	0.0987755
20	0x3da6ac75	0.08138362
21	0x3d0fe41b	0.035129648
22	0x3d451706	0.04811766
23	0x3dc3c125	0.09558324
24	0x3d7d393a	0.061822154
25	0x3e320f95	0.17388757
26	0x3d5218d1	0.051293198
27	0x3e197f27	0.14989911
28	0x3d9f8dd0	0.077907205
29	0x3dc1876e	0.09449659
30	0x3dee16a2	0.116254106
31	0x3dff4417	0.12464159
32	0x3dad53d8	0.084632576
33	0x3d8b5c2d	0.068046905
34	0x3e28e39b	0.16493075
35	0x3cb935f3	0.022608733
36	0x3e180414	0.14845306
37	0x3dca48d8	0.09877175
38	0x3a02a26b	0.00049833086
39	0x3dd8ed56	0.10592143
40	0x3cef4435	0.029207328
41	0x3d5efb7b	0.05443905
42	0x3db257a4	0.087081224
43	0x3dcbed89	0.099574156
44	0x3daf44bb	0.08558031
45	0x3e300f26	0.17193279
46	0x3d8b09b9	0.06788964
47	0x3d4eced6	0.050490223
48	0x3dadece8	0.08492452
49	0x3e0789fd	0.13236232
50	0x3cd907c6	0.026492964
51	0x3e16e442	0.14735511
52	0x3e084321	0.13306858
53	0x3e18781c	0.14889568
54	0x3dc606f3	0.09669294
55	0x3dc8c154	0.098024994
56	0x3e2a5939	0.16635598
57	0x3da7e51e	0.081979975
58	0x3d505095	0.0508581
59	0x3dc3f51d	0.09568236
60	0x3d990e49	0.07473428
61	0x3e17bd08	0.14818203
62	0x3dd29369	0.102820225
63	0x3d687345	0.056750555
64	0x3dacbdf1	0.08434666
65	0x3e1efe06	0.1552659
66	0x3dada74e	0.084791765
67	0x3c3505a1	0.011048705
68	0x3d61b99e	0.05510866
69	0x3dd1c718	0.10243052
70	0x3d9b9f7f	0.07598781
71	0x3e09f252	0.13471344
72	0x3da6fe04	0.081539184
73	0x3e2e5efb	0.1702842
74	0x3dd6e635	0.10493127
75	0x3df87c2f	0.12133061
76	0x3e0cdf63	0.1375709
77	0x3cbad515	0.022806684
78	0x3e0213fe	0.12702939
79	0x3dd272ec	0.10275826
80	0x3da03aa7	0.07823687
81	0x3db203fc	0.08692166
82	0xba23852b	-0.00062378
83	0x3d5eaf9b	0.05436669
84	0x3d63b632	0.055593677
85	0x3dc9e421	0.09857965
86	0x3e22d99d	0.15903325
87	0x3e1b4284	0.15162092
88	0x3e38a892	0.18033054
89	0x3e2527d6	0.16128477
90	0x3daf01f9	0.08545298
91	0x3d8d16e3	0.06889131
92	0x3e2c94f9	0.16853704
93	0x3e1f4b78	0.15556133
94	0x3d161d4e	0.03664904
95	0x3e2f9c3d	0.17149444
